RegressionModel(
  (embs): ModuleList(
    (0): Embedding(14, 7)
    (1): Embedding(6, 3)
    (2): Embedding(10, 5)
    (3): Embedding(5, 2)
    (4): Embedding(5, 2)
    (5): Embedding(5, 2)
    (6): Embedding(4, 2)
    (7): Embedding(12, 6)
    (8): Embedding(7, 3)
    (9): Embedding(5, 2)
  )
  (lins): ModuleList(
    (0): Linear(in_features=44, out_features=1000, bias=True)
    (1): Linear(in_features=1000, out_features=500, bias=True)
    (2): Linear(in_features=500, out_features=250, bias=True)
  )
  (bns): ModuleList(
    (0): GroupNorm(1, 1000, eps=1e-05, affine=True)
    (1): GroupNorm(1, 500, eps=1e-05, affine=True)
    (2): GroupNorm(1, 250, eps=1e-05, affine=True)
  )
  (outp): Linear(in_features=250, out_features=1, bias=True)
  (emb_drop): Dropout(p=0.04, inplace=False)
  (drops): ModuleList(
    (0): Dropout(p=0.001, inplace=False)
    (1): Dropout(p=0.01, inplace=False)
    (2): Dropout(p=0.01, inplace=False)
  )
  (bn): GroupNorm(1, 10, eps=1e-05, affine=True)
  (activation): Sigmoid()
) 


=== RUN # 0 ====================================

  0%|          | 0/857 [00:00<?, ?it/s]0 tensor([[ 6,  2,  0,  1,  1,  1,  0,  1,  2,  0],
…
