RegressionModel(
  (embs): ModuleList(
    (0): Embedding(13, 6)
    (1): Embedding(5, 2)
    (2): Embedding(9, 4)
    (3): Embedding(4, 2)
    (4): Embedding(4, 2)
    (5): Embedding(4, 2)
    (6): Embedding(3, 1)
    (7): Embedding(11, 5)
    (8): Embedding(6, 3)
    (9): Embedding(4, 2)
  )
  (lins): ModuleList(
    (0): Linear(in_features=39, out_features=1000, bias=True)
    (1): Linear(in_features=1000, out_features=500, bias=True)
    (2): Linear(in_features=500, out_features=250, bias=True)
  )
  (bns): ModuleList(
    (0): GroupNorm(1, 1000, eps=1e-05, affine=True)
    (1): GroupNorm(1, 500, eps=1e-05, affine=True)
    (2): GroupNorm(1, 250, eps=1e-05, affine=True)
  )
  (outp): Linear(in_features=250, out_features=1, bias=True)
  (emb_drop): Dropout(p=0.04, inplace=False)
  (drops): ModuleList(
    (0): Dropout(p=0.001, inplace=False)
    (1): Dropout(p=0.01, inplace=False)
    (2): Dropout(p=0.01, inplace=False)
  )
  (bn): GroupNorm(1, 10, eps=1e-05, affine=True)
  (activation): Sigmoid()
)  0%|          | 0/572 [00:00<?, ?it/s] 


=== RUN # 0 ====================================
…
